…
|eot_id|>', '')\n","print(output)\n","\n"],"metadata":{"colab":{"base_uri":"https://localhost:8080/","height":1000},"id":"lCkNPe5vOuAB","executionInfo":{"status":"error","timestamp":1729352798477,"user_tz":-330,"elapsed":916,"user":{"displayName":"Jayant Parashar","userId":"07882534943954735002"}},"outputId":"518f3ee5-ff5e-48f5-daf9-1016d14ed993"},"execution_count":13,"outputs":[{"output_type":"error","ename":"OSError","evalue":"Incorrect path_or_model_id: 'PeftModelForCausalLM(\n  (base_model): LoraModel(\n    (model): MllamaForCausalLM(\n      (model): MllamaTextModel(\n        (embed_tokens): Embedding(128264, 4096, padding_idx=128004)\n        (layers): ModuleList(\n          (0-2): 3 x MllamaSelfAttentionDecoderLayer(\n            (self_attn): MllamaTextSelfSdpaAttention(\n              (q_proj): lora.Linear(\n                (base_layer): Linear(in_features=4096, out_features=4096, bias=False)\n                (lora_dropout): ModuleDict(\n                  (default): Dropout(p=0.05, inplace=False)\n                )\n                (lora_A): ModuleDict(\n                  (default): Linear(in_features=4096, out_features=16, bias=False)\n                )\n                (lora_B): ModuleDict(\n                  (default): Linear(in_features=16, out_features=4096, bias=False)\n                )\n                (lora_embedding_A): ParameterDict()\n                (lora_embedding_B): ParameterDict()\n                (lora_magnitude_vector): ModuleDict()\n              )\n              (k_proj): lora.Linear(\n                (base_layer): Linear(in_features=4096, out_features=1024, bias=False)\n                (lora_dropout): ModuleDict(\n                  (default): Dropout(p=0.05, inplace=False)\n                )\n                (lora_A): ModuleDict(\n                  (default): Linear(in_features=4096, out_features=16, bias=False)\n                )\n                (lora_B): ModuleDict(\n                  (default): Linear(in_features=16, out_features=1024, bias=False)\n                )\n                (lora_embedding_A): ParameterDict()\n                (lora_embedding_B): ParameterDict()\n                (lora_magnitude_vector): ModuleDict()\n              )\n              (v_proj): lora.Linear(\n                (base_layer): Linear(in_features=4096, out_features=1024, bias=False)\n                (lora_dropout): ModuleDict(\n                  (default): Dropout(p=0.05, inplace=False)\n                )\n                (lora_A): ModuleDict(\n                  (default): Linear(in_features=4096, out_features=16, bias=False)\n                )\n                (lora_B): ModuleDict(\n                  (default): Linear(in_features=16, out_features=1024, bias=False)\n                )\n                (lora_embedding_A): ParameterDict()\n                (lora_embedding_B): ParameterDict()\n                (lora_magnitude_vector): ModuleDict()\n              )\n              (o_proj): lora.Linear(\n                (base_layer): Linear(in_features=4096, out_features=4096, bias=False)\n                (lora_dropout): ModuleDict(\n                  (default): Dropout(p=0.05, inplace=False)\n                )\n                (lora_A): ModuleDict(\n                  (default): Linear(in_features=4096, out_features=16, bias=False)\n                )\n                (lora_B): ModuleDict(\n                  (default): Linear(in_features=16, out_features=4096, bias=False)\n                )\n                (lora_embedding_A): ParameterDict()\n                (lora_embedding_B): ParameterDict()\n                (lora_magnitude_vector): ModuleDict()\n              )\n            )\n            (mlp): MllamaTextMLP(\n              (gate_proj): lora.Linear(\n                (base_layer): Linear(in_features=4096, out_features=14336, bias=False)\n                (lora_dropout): ModuleDict(\n                  (default): Dropout(p=0.05, inplace=False)\n                )\n                (lora_A): ModuleDict(\n                  (default): Linear(in_features=4096, out_features=16, bias=False)\n                )\n                (lora_B): ModuleDict(\n                  (default): Linear(in_features=16, out_features=14336, bias=False)\n                )\n                (lora_embedding_A): ParameterDict()\n                (lora_embedding_B): ParameterDict()\n                (lora_magnitude_vector): ModuleDict()\n              )\n              (up_proj): lora.Linear(\n                (base_layer): Linear(in_features=4096, out_features=14336, bias=False)\n                (lora_dropout): ModuleDict(\n                  (default): Dropout(p=0.05, inplace=False)\n                )\n                (lora_A): ModuleDict(\n                  (default): Linear(in_features=4096, out_features=16, bias=False)\n                )\n                (lora_B): ModuleDict(\n                  (default): Linear(in_features=16, out_features=14336, bias=False)\n                )\n                (lora_embedding_A): ParameterDict()\n                (lora_embedding_B): ParameterDict()\n                (lora_magnitude_vector): ModuleDict()\n              )\n              (down_proj): lora.Linear(\n                (base_layer): Linear(in_features=14336, out_features=4096, bias=False)\n                (lora_dropout): ModuleDict(\n                  (default): Dropout(p=0.05, inplace=False)\n                )\n                (lora_A): ModuleDict(\n                  (default): Linear(in_features=14336, out_features=16, bias=False)\n                )\n                (lora_B): ModuleDict(\n                  (default): Linear(in_features=16, out_features=4096, bias=False)\n                )\n                (lora_embedding_A): ParameterDict()\n                (lora_embedding_B): ParameterDict()\n                (lora_magnitude_vector): ModuleDict()\n              )\n              (act_fn): SiLU()\n            )\n            (input_layernorm): MllamaTextRMSNorm((4096,), eps=1e-05)\n            (post_attention_layernorm): MllamaTextRMSNorm((4096,), eps=1e-05)\n          )\n          (3): MllamaCrossAttentionDecoderLayer(\n            (cross_attn): MllamaTextCrossSdpaAttention(\n              (q_proj): lora.Linear(\n                (base_layer): Linear(in_features=4096, out_features=4096, bias=False)\n                (lora_dropout): ModuleDict(\n                  (default): Dropout(p=0.05, inplace=False)\n                )\n                (lora_A): ModuleDict(\n                  (default): Linear(in_features=4096, out_features=16, bias=False)\n                )\n                (lora_B): ModuleDict(\n                  (default): Linear(in_features=16, out_features=4096, bias=False)\n                )\n                (lora_embedding_A): ParameterDict()\n                (lora_embedding_B): ParameterDict()\n                (lora_magnitude_vector): ModuleDict()\n              )\n              (k_proj): lora.Linear(\n                (base_layer): Linear(in_features=4096, out_features=1024, bias=False)\n                (lora_dropout): ModuleDict(\n                  (default): Dropout(p=0.05, inplace=False)\n                )\n                (lora_A): ModuleDict(\n                  (default): Linear(in_features=4096, out_features=16, bias=False)\n                )\n                (lora_B): ModuleDict(\n                  (default): Linear(in_features=16, out_features=1024, bias=False)\n                )\n                (lora_embedding_A): ParameterDict()\n                (lora_embedding_B): ParameterDict()\n                (lora_magnitude_vector): ModuleDict()\n              )\n              (v_proj): lora.Linear(\n                (base_layer): Linear(in_features=4096, out_features=1024, bias=False)\n                (lora_dropout): ModuleDict(\n                  (default): Dropout(p=0.05, inplace=False)\n                )\n                (lora_A): ModuleDict(\n                  (default): Linear(in_features=4096, out_features=16, bias=False)\n                )\n                (lora_B): ModuleDict(\n                  (default): Linear(in_features=16, out_features=1024, bias=False)\n                )\n                (lora_embedding_A): ParameterDict()\n                (lora_embedding_B): ParameterDict()\n                (lora_magnitude_vector): ModuleDict()\n              )\n              (o_proj): lora.Linear(\n                (base_layer): Linear(in_features=4096, out_features=4096, bias=False)\n                (lora_dropout): ModuleDict(\n                  (default): Dropout(p=0.05, inplace=False)\n                )\n                (lora_A): ModuleDict(\n                  (default): Linear(in_features=4096, out_features=16, bias=False)\n                )\n                (lora_B): ModuleDict(\n                  (default): Linear(in_features=16, out_features=4096, bias=False)\n                )\n                (lora_embedding_A): ParameterDict()\n                (lora_embedding_B): ParameterDict()\n                (lora_magnitude_vector): ModuleDict()\n              )\n              (q_norm): MllamaTextRMSNorm((128,), eps=1e-05)\n              (k_norm): MllamaTextRMSNorm((128,), eps=1e-05)\n            )\n            (input_layernorm): MllamaTextRMSNorm((4096,), eps=1e-05)\n            (mlp): MllamaTextMLP(\n              (gate_proj): lora.Linear(\n                (base_layer): Linear(in_features=4096, out_features=14336, bias=False)\n                (lora_dropout): ModuleDict(\n                  (default): Dropout(p=0.05, inplace=False)\n                )\n                (lora_A): ModuleDict(\n                  (default): Linear(in_features=4096, out_features=16, bias=False)\n                )\n                (lora_B): ModuleDict(\n                  (default): Linear(in_features=16, out_features=14336, bias=False)\n                )\n                (lora_embedding_A): ParameterDict()\n                (lora_embedding_B): ParameterDict()\n                (lora_magnitude_vector): ModuleDict()\n              )\n              (up_proj): lora.Linear(\n                (base_layer): Linear(in_features=4096, out_features=14336, bias=False)\n                (lora_dropout): ModuleDict(\n                  (default): Dropout(p=0.05, inplace=False)\n                )\n                (lora_A): ModuleDict(\n                  (default): Linear(in_features=4096, out_features=16, bias=False)\n                )\n                (lora_B): ModuleDict(\n                  (default): Linear(in_features=16, out_features=14336, bias=False)\n                )\n                (lora_embedding_A): ParameterDict()\n                (lora_embedding_B): ParameterDict()\n                (lora_magnitude_vector): ModuleDict()\n              )\n              (down_proj): lora.Linear(\n                (base_layer): Linear(in_features=14336, out_features=4096, bias=False)\n                (lora_dropout): ModuleDict(\n                  (default): Dropout(p=0.05, inplace=False)\n                )\n                (lora_A): ModuleDict(\n                  (default): Linear(in_features=14336, out_features=16, bias=False)\n                )\n                (lora_B): ModuleDict(\n                  (default): Linear(in_features=16, out_features=4096, bias=False)\n                )\n                (lora_embedding_A): ParameterDict()\n                (lora_embedding_B): ParameterDict()\n                (lora_magnitude_vector): ModuleDict()\n              )\n              (act_fn): SiLU()\n            )\n            (post_attention_layernorm): MllamaTextRMSNorm((4096,), eps=1e-05)\n          )\n          (4-7): 4 x MllamaSelfAttentionDecoderLayer(\n            (self_attn): MllamaTextSelfSdpaAttention(\n              (q_proj): lora.Linear(\n                (base_layer): Linear(in_features=4096, out_features=4096, bias=False)\n                (lora_dropout): ModuleDict(\n                  (default): Dropout(p=0.05, inplace=False)\n                )\n                (lora_A): ModuleDict(\n                  (default): Linear(in_features=4096, out_features=16, bias=False)\n                )\n                (lora_B): ModuleDict(\n                  (default): Linear(in_features=16, out_features=4096, bias=False)\n                )\n                (lora_embedding_A): ParameterDict()\n                (lora_embedding_B): ParameterDict()\n                (lora_magnitude_vector): ModuleDict()\n              )\n              (k_proj): lora.Linear(\n                (base_layer): Linear(in_features=4096, out_features=1024, bias=False)\n                (lora_dropout): ModuleDict(\n                  (default): Dropout(p=0.05, inplace=False)\n                )\n                (lora_A): ModuleDict(\n                  (default): Linear(in_features=4096, out_features=16, bias=False)\n                )\n                (lora_B): ModuleDict(\n                  (default): Linear(in_features=16, out_features=1024, bias=False)\n                )\n                (lora_embedding_A): ParameterDict()\n                (lora_embedding_B): ParameterDict()\n                (lora_magnitude_vector): ModuleDict()\n              )\n              (v_proj): lora.Linear(\n                (base_layer): Linear(in_features=4096, out_features=1024, bias=False)\n                (lora_dropout): ModuleDict(\n                  (default): Dropout(p=0.05, inplace=False)\n                )\n                (lora_A): ModuleDict(\n                  (default): Linear(in_features=4096, out_features=16, bias=False)\n                )\n                (lora_B): ModuleDict(\n                  (default): Linear(in_features=16, out_features=1024, bias=False)\n                )\n                (lora_embedding_A): ParameterDict()\n                (lora_embedding_B): ParameterDict()\n                (lora_magnitude_vector): ModuleDict()\n              )\n              (o_proj): lora.Linear(\n                (base_layer): Linear(in_features=4096, out_features=4096, bias=False)\n                (lora_dropout): ModuleDict(\n                  (default): Dropout(p=0.05, inplace=False)\n                )\n                (lora_A): ModuleDict(\n                  (default): Linear(in_features=4096, out_features=16, bias=False)\n                )\n                (lora_B): ModuleDict(\n                  (default): Linear(in_features=16, out_features=4096, bias=False)\n                )\n                (lora_embedding_A): ParameterDict()\n                (lora_embedding_B): ParameterDict()\n                (lora_magnitude_vector): ModuleDict()\n              )\n            )\n            (mlp): MllamaTextMLP(\n              (gate_proj): lora.Linear(\n                (base_layer): Linear(in_features=4096, out_features=14336, bias=False)\n                (lora_dropout): ModuleDict(\n                  (default): Dropout(p=0.05, inplace=False)\n                )\n                (lora_A): ModuleDict(\n                  (default): Linear(in_features=4096, out_features=16, bias=False)\n                )\n                (lora_B): ModuleDict(\n                  (default): Linear(in_features=16, out_features=14336, bias=False)\n                )\n                (lora_embedding_A): ParameterDict()\n                (lora_embedding_B): ParameterDict()\n                (lora_magnitude_vector): ModuleDict()\n              )\n              (up_proj): lora.Linear(\n                (base_layer): Linear(in_features=4096, out_features=14336, bias=False)\n                (lora_dropout): ModuleDict(\n                  (default): Dropout(p=0.05, inplace=False)\n                )\n                (lora_A): ModuleDict(\n                  (default): Linear(in_features=4096, out_features=16, bias=False)\n                )\n                (lora_B): ModuleDict(\n                  (default): Linear(in_features=16, out_features=14336, bias=False)\n                )\n                (lora_embedding_A): ParameterDict()\n                (lora_embedding_B): ParameterDict()\n                (lora_magnitude_vector): ModuleDict()\n              )\n              (down_proj): lora.Linear(\n                (base_layer): Linear(in_features=14336, out_features=4096, bias=False)\n                (lora_dropout): ModuleDict(\n                  (default): Dropout(p=0.05, inplace=False)\n                )\n                (lora_A): ModuleDict(\n                  (default): Linear(in_features=14336, out_features=16, bias=False)\n                )\n                (lora_B): ModuleDict(\n                  (default): Linear(in_features=16, out_features=4096, bias=False)\n                )\n                (lora_embedding_A): ParameterDict()\n                (lora_embedding_B): ParameterDict()\n                (lora_magnitude_vector): ModuleDict()\n              )\n              (act_fn): SiLU()\n            )\n            (input_layernorm): MllamaTextRMSNorm((4096,), eps=1e-05)\n            (post_attention_layernorm): MllamaTextRMSNorm((4096,), eps=1e-05)\n          )\n          (8): MllamaCrossAttentionDecoderLayer(\n            (cross_attn): MllamaTextCrossSdpaAttention(\n              (q_proj): lora.Linear(\n                (base_layer): Linear(in_features=4096, out_features=4096, bias=False)\n                (lora_dropout): ModuleDict(\n                  (default): Dropout(p=0.05, inplace=False)\n                )\n                (lora_A): ModuleDict(\n                  (default): Linear(in_features=4096, out_features=16, bias=False)\n                )\n                (lora_B): ModuleDict(\n                  (default): Linear(in_features=16, out_features=4096, bias=False)\n                )\n                (lora_embedding_A): ParameterDict()\n                (lora_embedding_B): ParameterDict()\n                (lora_magnitude_vector): ModuleDict()\n              )\n              (k_proj): lora.Linear(\n                (base_layer): Linear(in_features=4096, out_features=1024, bias=False)\n                (lora_dropout): ModuleDict(\n                  (default): Dropout(p=0.05, inplace=False)\n                )\n                (lora_A): ModuleDict(\n                  (default): Linear(in_features=4096, out_features=16, bias=False)\n                )\n                (lora_B): ModuleDict(\n                  (default): Linear(in_features=16, out_features=1024, bias=False)\n                )\n                (lora_embedding_A): ParameterDict()\n                (lora_embedding_B): ParameterDict()\n                (lora_magnitude_vector): ModuleDict()\n              )\n              (v_proj): lora.Linear(\n                (base_layer): Linear(in_features=4096, out_features=1024, bias=False)\n                (lora_dropout): ModuleDict(\n                  (default): Dropout(p=0.05, inplace=False)\n                )\n                (lora_A): ModuleDict(\n                  (default): Linear(in_features=4096, out_features=16, bias=False)\n                )\n                (lora_B): ModuleDict(\n                  (default): Linear(in_features=16, out_features=1024, bias=False)\n                )\n                (lora_embedding_A): ParameterDict()\n                (lora_embedding_B): ParameterDict()\n                (lora_magnitude_vector): ModuleDict()\n              )\n              (o_proj): lora.Linear(\n                (base_layer): Linear(in_features=4096, out_features=4096, bias=False)\n                (lora_dropout): ModuleDict(\n                  (default): Dropout(p=0.05, inplace=False)\n                )\n                (lora_A): ModuleDict(\n                  (default): Linear(in_features=4096, out_features=16, bias=False)\n                )\n                (lora_B): ModuleDict(\n                  (default): Linear(in_features=16, out_features=4096, bias=False)\n                )\n                (lora_embedding_A): ParameterDict()\n                (lora_embedding_B): ParameterDict()\n                (lora_magnitude_vector): ModuleDict()\n              )\n              (q_norm): MllamaTextRMSNorm((128,), eps=1e-05)\n              (k_norm): MllamaTextRMSNorm((128,), eps=1e-05)\n            )\n            (input_layernorm): MllamaTextRMSNorm((4096,), eps=1e-05)\n            (mlp): MllamaTextMLP(\n              (gate_proj): lora.Linear(\n                (base_layer): Linear(in_features=4096, out_features=14336, bias=False)\n                (lora_dropout): ModuleDict(\n                  (default): Dropout(p=0.05, inplace=False)\n                )\n                (lora_A): ModuleDict(\n                  (default): Linear(in_features=4096, out_features=16, bias=False)\n                )\n                (lora_B): ModuleDict(\n                  (default): Linear(in_features=16, out_features=14336, bias=False)\n                )\n                (lora_embedding_A): ParameterDict()\n                (lora_embedding_B): ParameterDict()\n                (lora_magnitude_vector): ModuleDict()\n              )\n              (up_proj): lora.Linear(\n                (base_layer): Linear(in_features=4096, out_features=14336, bias=False)\n                (lora_dropout): ModuleDict(\n                  (default): Dropout(p=0.05, inplace=False)\n                )\n                (lora_A): ModuleDict(\n                  (default): Linear(in_features=4096, out_features=16, bias=False)\n                )\n                (lora_B): ModuleDict(\n                  (default): Linear(in_features=16, out_features=14336, bias=False)\n                )\n                (lora_embedding_A): ParameterDict()\n                (lora_embedding_B): ParameterDict()\n                (lora_magnitude_vector): ModuleDict()\n              )\n              (down_proj): lora.Linear(\n                (base_layer): Linear(in_features=14336, out_features=4096, bias=False)\n                (lora_dropout): ModuleDict(\n                  (default): Dropout(p=0.05, inplace=False)\n                )\n                (lora_A): ModuleDict(\n                  (default): Linear(in_features=14336, out_features=16, bias=False)\n                )\n                (lora_B): ModuleDict(\n                  (default): Linear(in_features=16, out_features=4096, bias=False)\n                )\n                (lora_embedding_A): ParameterDict()\n                (lora_embedding_B): ParameterDict()\n                (lora_magnitude_vector): ModuleDict()\n              )\n              (act_fn): SiLU()\n            )\n            (post_attention_layernorm): MllamaTextRMSNorm((4096,), eps=1e-05)\n          )\n          (9-12): 4 x MllamaSelfAttentionDecoderLayer(\n            (self_attn): MllamaTextSelfSdpaAttention(\n              (q_proj): lora.Linear(\n                (base_layer): Linear(in_features=4096, out_features=4096, bias=False)\n                (lora_dropout): ModuleDict(\n                  (default): Dropout(p=0.05, inplace=False)\n                )\n                (lora_A): ModuleDict(\n                  (default): Linear(in_features=4096, out_features=16, bias=False)\n                )\n                (lora_B): ModuleDict(\n                  (default): Linear(in_features=16, out_features=4096, bias=False)\n                )\n                (lora_embedding_A): ParameterDict()\n                (lora_embedding_B): ParameterDict()\n                (lora_magnitude_vector): ModuleDict()\n              )\n              (k_proj): lora.Linear(\n                (base_layer): Linear(in_features=4096, out_features=1024, bias=False)\n                (lora_dropout): ModuleDict(\n                  (default): Dropout(p=0.05, inplace=False)\n                )\n                (lora_A): ModuleDict(\n                  (default): Linear(in_features=4096, out_features=16, bias=False)\n                )\n                (lora_B): ModuleDict(\n                  (default): Linear(in_features=16, out_features=1024, bias=False)\n                )\n                (lora_embedding_A): ParameterDict()\n                (lora_embedding_B): ParameterDict()\n                (lora_magnitude_vector): ModuleDict()\n              )\n              (v_proj): lora.Linear(\n                (base_layer): Linear(in_features=4096, out_features=1024, bias=False)\n                (lora_dropout): ModuleDict(\n                  (default): Dropout(p=0.05, inplace=False)\n                )\n                (lora_A): ModuleDict(\n                  (default): Linear(in_features=4096, out_features=16, bias=False)\n                )\n                (lora_B): ModuleDict(\n                  (default): Linear(in_features=16, out_features=1024, bias=False)\n                )\n                (lora_embedding_A): ParameterDict()\n                (lora_embedding_B): ParameterDict()\n                (lora_magnitude_vector): ModuleDict()\n              )\n              (o_proj): lora.Linear(\n                (base_layer): Linear(in_features=4096, out_features=4096, bias=False)\n                (lora_dropout): ModuleDict(\n                  (default): Dropout(p=0.05, inplace=False)\n                )\n                (lora_A): ModuleDict(\n                  (default): Linear(in_features=4096, out_features=16, bias=False)\n                )\n                (lora_B): ModuleDict(\n                  (default): Linear(in_features=16, out_features=4096, bias=False)\n                )\n                (lora_embedding_A): ParameterDict()\n                (lora_embedding_B): ParameterDict()\n                (lora_magnitude_vector): ModuleDict()\n              )\n            )\n            (mlp): MllamaTextMLP(\n              (gate_proj): lora.Linear(\n                (base_layer): Linear(in_features=4096, out_features=14336, bias=False)\n                (lora_dropout): ModuleDict(\n                  (default): Dropout(p=0.05, inplace=False)\n                )\n                (lora_A): ModuleDict(\n                  (default): Linear(in_features=4096, out_features=16, bias=False)\n                )\n                (lora_B): ModuleDict(\n                  (default): Linear(in_features=16, out_features=14336, bias=False)\n                )\n                (lora_embedding_A): ParameterDict()\n                (lora_embedding_B): ParameterDict()\n                (lora_magnitude_vector): ModuleDict()\n              )\n              (up_proj): lora.Linear(\n                (base_layer): Linear(in_features=4096, out_features=14336, bias=False)\n                (lora_dropout): ModuleDict(\n                  (default): Dropout(p=0.05, inplace=False)\n                )\n                (lora_A): ModuleDict(\n                  (default): Linear(in_features=4096, out_features=16, bias=False)\n                )\n                (lora_B): ModuleDict(\n                  (default): Linear(in_features=16, out_features=14336, bias=False)\n                )\n                (lora_embedding_A): ParameterDict()\n                (lora_embedding_B): ParameterDict()\n                (lora_magnitude_vector): ModuleDict()\n              )\n              (down_proj): lora.Linear(\n                (base_layer): Linear(in_features=14336, out_features=4096, bias=False)\n                (lora_dropout): ModuleDict(\n                  (default): Dropout(p=0.05, inplace=False)\n                )\n                (lora_A): ModuleDict(\n                  (default): Linear(in_features=14336, out_features=16, bias=False)\n                )\n                (lora_B): ModuleDict(\n                  (default): Linear(in_features=16, out_features=4096, bias=False)\n                )\n                (lora_embedding_A): ParameterDict()\n                (lora_embedding_B): ParameterDict()\n                (lora_magnitude_vector): ModuleDict()\n              )\n              (act_fn): SiLU()\n            )\n            (input_layernorm): MllamaTextRMSNorm((4096,), eps=1e-05)\n            (post_attention_layernorm): MllamaTextRMSNorm((4096,), eps=1e-05)\n          )\n          (13): MllamaCrossAttentionDecoderLayer(\n            (cross_attn): MllamaTextCrossSdpaAttention(\n              (q_proj): lora.Linear(\n                (base_layer): Linear(in_features=4096, out_features=4096, bias=False)\n                (lora_dropout): ModuleDict(\n                  (default): Dropout(p=0.05, inplace=False)\n                )\n                (lora_A): ModuleDict(\n                  (default): Linear(in_features=4096, out_features=16, bias=False)\n                )\n                (lora_B): ModuleDict(\n                  (default): Linear(in_features=16, out_features=4096, bias=False)\n                )\n                (lora_embedding_A): ParameterDict()\n                (lora_embedding_B): ParameterDict()\n                (lora_magnitude_vector): ModuleDict()\n              )\n              (k_proj): lora.Linear(\n                (base_layer): Linear(in_features=4096, out_features=1024, bias=False)\n                (lora_dropout): ModuleDict(\n                  (default): Dropout(p=0.05, inplace=False)\n                )\n                (lora_A): ModuleDict(\n                  (default): Linear(in_features=4096, out_features=16, bias=False)\n                )\n                (lora_B): ModuleDict(\n                  (default): Linear(in_features=16, out_features=1024, bias=False)\n                )\n                (lora_embedding_A): ParameterDict()\n                (lora_embedding_B): ParameterDict()\n                (lora_magnitude_vector): ModuleDict()\n              )\n              (v_proj): lora.Linear(\n                (base_layer): Linear(in_features=4096, out_features=1024, bias=False)\n                (lora_dropout): ModuleDict(\n                  (default): Dropout(p=0.05, inplace=False)\n                )\n                (lora_A): ModuleDict(\n                  (default): Linear(in_features=4096, out_features=16, bias=False)\n                )\n                (lora_B): ModuleDict(\n                  (default): Linear(in_features=16, out_features=1024, bias=False)\n                )\n                (lora_embedding_A): ParameterDict()\n                (lora_embedding_B): ParameterDict()\n                (lora_magnitude_vector): ModuleDict()\n              )\n              (o_proj): lora.Linear(\n                (base_layer): Linear(in_features=4096, out_features=4096, bias=False)\n                (lora_dropout): ModuleDict(\n                  (default): Dropout(p=0.05, inplace=False)\n                )\n                (lora_A): ModuleDict(\n                  (default): Linear(in_features=4096, out_features=16, bias=False)\n                )\n                (lora_B): ModuleDict(\n                  (default): Linear(in_features=16, out_features=4096, bias=False)\n                )\n                (lora_embedding_A): ParameterDict()\n                (lora_embedding_B): ParameterDict()\n                (lora_magnitude_vector): ModuleDict()\n              )\n              (q_norm): MllamaTextRMSNorm((128,), eps=1e-05)\n              (k_norm): MllamaTextRMSNorm((128,), eps=1e-05)\n            )\n            (input_layernorm): MllamaTextRMSNorm((4096,), eps=1e-05)\n            (mlp): MllamaTextMLP(\n              (gate_proj): lora.Linear(\n                (base_layer): Linear(in_features=4096, out_features=14336, bias=False)\n                (lora_dropout): ModuleDict(\n                  (default): Dropout(p=0.05, inplace=False)\n                )\n                (lora_A): ModuleDict(\n                  (default): Linear(in_features=4096, out_features=16, bias=False)\n                )\n                (lora_B): ModuleDict(\n                  (default): Linear(in_features=16, out_features=14336, bias=False)\n                )\n                (lora_embedding_A): ParameterDict()\n                (lora_embedding_B): ParameterDict()\n                (lora_magnitude_vector): ModuleDict()\n              )\n              (up_proj): lora.Linear(\n                (base_layer): Linear(in_features=4096, out_features=14336, bias=False)\n                (lora_dropout): ModuleDict(\n                  (default): Dropout(p=0.05, inplace=False)\n                )\n                (lora_A): ModuleDict(\n                  (default): Linear(in_features=4096, out_features=16, bias=False)\n                )\n                (lora_B): ModuleDict(\n                  (default): Linear(in_features=16, out_features=14336, bias=False)\n                )\n                (lora_embedding_A): ParameterDict()\n                (lora_embedding_B): ParameterDict()\n                (lora_magnitude_vector): ModuleDict()\n              )\n              (down_proj): lora.Linear(\n                (base_layer): Linear(in_features=14336, out_features=4096, bias=False)\n                (lora_dropout): ModuleDict(\n                  (default): Dropout(p=0.05, inplace=False)\n                )\n                (lora_A): ModuleDict(\n                  (default): Linear(in_features=14336, out_features=16, bias=False)\n                )\n                (lora_B): ModuleDict(\n                  (default): Linear(in_features=16, out_features=4096, bias=False)\n                )\n                (lora_embedding_A): ParameterDict()\n                (lora_embedding_B): ParameterDict()\n                (lora_magnitude_vector): ModuleDict()\n              )\n              (act_fn): SiLU()\n            )\n            (post_attention_layernorm): MllamaTextRMSNorm((4096,), eps=1e-05)\n          )\n          (14-17): 4 x MllamaSelfAttentionDecoderLayer(\n            (self_attn): MllamaTextSelfSdpaAttention(\n              (q_proj): lora.Linear(\n                (base_layer): Linear(in_features=4096, out_features=4096, bias=False)\n                (lora_dropout): ModuleDict(\n                  (default): Dropout(p=0.05, inplace=False)\n                )\n                (lora_A): ModuleDict(\n                  (default): Linear(in_features=4096, out_features=16, bias=False)\n                )\n                (lora_B): ModuleDict(\n                  (default): Linear(in_features=16, out_features=4096, bias=False)\n                )\n                (lora_embedding_A): ParameterDict()\n                (lora_embedding_B): ParameterDict()\n                (lora_magnitude_vector): ModuleDict()\n              )\n              (k_proj): lora.Linear(\n                (base_layer): Linear(in_features=4096, out_features=1024, bias=False)\n                (lora_dropout): ModuleDict(\n                  (default): Dropout(p=0.05, inplace=False)\n                )\n                (lora_A): ModuleDict(\n                  (default): Linear(in_features=4096, out_features=16, bias=False)\n                )\n                (lora_B): ModuleDict(\n                  (default): Linear(in_features=16, out_features=1024, bias=False)\n                )\n                (lora_embedding_A): ParameterDict()\n                (lora_embedding_B): ParameterDict()\n                (lora_magnitude_vector): ModuleDict()\n              )\n              (v_proj): lora.Linear(\n                (base_layer): Linear(in_features=4096, out_features=1024, bias=False)\n                (lora_dropout): ModuleDict(\n                  (default): Dropout(p=0.05, inplace=False)\n                )\n                (lora_A): ModuleDict(\n                  (default): Linear(in_features=4096, out_features=16, bias=False)\n                )\n                (lora_B): ModuleDict(\n                  (default): Linear(in_features=16, out_features=1024, bias=False)\n                )\n                (lora_embedding_A): ParameterDict()\n                (lora_embedding_B): ParameterDict()\n                (lora_magnitude_vector): ModuleDict()\n              )\n              (o_proj): lora.Linear(\n                (base_layer): Linear(in_features=4096, out_features=4096, bias=False)\n                (lora_dropout): ModuleDict(\n                  (default): Dropout(p=0.05, inplace=False)\n                )\n                (lora_A): ModuleDict(\n                  (default): Linear(in_features=4096, out_features=16, bias=False)\n                )\n                (lora_B): ModuleDict(\n                  (default): Linear(in_features=16, out_features=4096, bias=False)\n                )\n                (lora_embedding_A): ParameterDict()\n                (lora_embedding_B): ParameterDict()\n                (lora_magnitude_vector): ModuleDict()\n              )\n            )\n            (mlp): MllamaTextMLP(\n              (gate_proj): lora.Linear(\n                (base_layer): Linear(in_features=4096, out_features=14336, bias=False)\n                (lora_dropout): ModuleDict(\n                  (default): Dropout(p=0.05, inplace=False)\n                )\n                (lora_A): ModuleDict(\n                  (default): Linear(in_features=4096, out_features=16, bias=False)\n                )\n                (lora_B): ModuleDict(\n                  (default): Linear(in_features=16, out_features=14336, bias=False)\n                )\n                (lora_embedding_A): ParameterDict()\n                (lora_embedding_B): ParameterDict()\n                (lora_magnitude_vector): ModuleDict()\n              )\n              (up_proj): lora.Linear(\n                (base_layer): Linear(in_features=4096, out_features=14336, bias=False)\n                (lora_dropout): ModuleDict(\n                  (default): Dropout(p=0.05, inplace=False)\n                )\n                (lora_A): ModuleDict(\n                  (default): Linear(in_features=4096, out_features=16, bias=False)\n                )\n                (lora_B): ModuleDict(\n                  (default): Linear(in_features=16, out_features=14336, bias=False)\n                )\n                (lora_embedding_A): ParameterDict()\n                (lora_embedding_B): ParameterDict()\n                (lora_magnitude_vector): ModuleDict()\n              )\n              (down_proj): lora.Linear(\n                (base_layer): Linear(in_features=14336, out_features=4096, bias=False)\n                (lora_dropout): ModuleDict(\n                  (default): Dropout(p=0.05, inplace=False)\n                )\n                (lora_A): ModuleDict(\n                  (default): Linear(in_features=14336, out_features=16, bias=False)\n                )\n                (lora_B): ModuleDict(\n                  (default): Linear(in_features=16, out_features=4096, bias=False)\n                )\n                (lora_embedding_A): ParameterDict()\n                (lora_embedding_B): ParameterDict()\n                (lora_magnitude_vector): ModuleDict()\n              )\n              (act_fn): SiLU()\n            )\n            (input_layernorm): MllamaTextRMSNorm((4096,), eps=1e-05)\n            (post_attention_layernorm): MllamaTextRMSNorm((4096,), eps=1e-05)\n          )\n          (18): MllamaCrossAttentionDecoderLayer(\n            (cross_attn): MllamaTextCrossSdpaAttention(\n              (q_proj): lora.Linear(\n                (base_layer): Linear(in_features=4096, out_features=4096, bias=False)\n                (lora_dropout): ModuleDict(\n                  (default): Dropout(p=0.05, inplace=False)\n                )\n                (lora_A): ModuleDict(\n                  (default): Linear(in_features=4096, out_features=16, bias=False)\n                )\n                (lora_B): ModuleDict(\n                  (default): Linear(in_features=16, out_features=4096, bias=False)\n                )\n                (lora_embedding_A): ParameterDict()\n                (lora_embedding_B): ParameterDict()\n                (lora_magnitude_vector): ModuleDict()\n              )\n              (k_proj): lora.Linear(\n                (base_layer): Linear(in_features=4096, out_features=1024, bias=False)\n                (lora_dropout): ModuleDict(\n                  (default): Dropout(p=0.05, inplace=False)\n                )\n                (lora_A): ModuleDict(\n                  (default): Linear(in_features=4096, out_features=16, bias=False)\n                )\n                (lora_B): ModuleDict(\n                  (default): Linear(in_features=16, out_features=1024, bias=False)\n                )\n                (lora_embedding_A): ParameterDict()\n                (lora_embedding_B): ParameterDict()\n                (lora_magnitude_vector): ModuleDict()\n              )\n              (v_proj): lora.Linear(\n                (base_layer): Linear(in_features=4096, out_features=1024, bias=False)\n                (lora_dropout): ModuleDict(\n                  (default): Dropout(p=0.05, inplace=False)\n                )\n                (lora_A): ModuleDict(\n                  (default): Linear(in_features=4096, out_features=16, bias=False)\n                )\n                (lora_B): ModuleDict(\n                  (default): Linear(in_features=16, out_features=1024, bias=False)\n                )\n                (lora_embedding_A): ParameterDict()\n                (lora_embedding_B): ParameterDict()\n                (lora_magnitude_vector): ModuleDict()\n              )\n              (o_proj): lora.Linear(\n                (base_layer): Linear(in_features=4096, out_features=4096, bias=False)\n                (lora_dropout): ModuleDict(\n                  (default): Dropout(p=0.05, inplace=False)\n                )\n                (lora_A): ModuleDict(\n                  (default): Linear(in_features=4096, out_features=16, bias=False)\n                )\n                (lora_B): ModuleDict(\n                  (default): Linear(in_features=16, out_features=4096, bias=False)\n                )\n                (lora_embedding_A): ParameterDict()\n                (lora_embedding_B): ParameterDict()\n                (lora_magnitude_vector): ModuleDict()\n              )\n              (q_norm): MllamaTextRMSNorm((128,), eps=1e-05)\n              (k_norm): MllamaTextRMSNorm((128,), eps=1e-05)\n            )\n            (input_layernorm): MllamaTextRMSNorm((4096,), eps=1e-05)\n            (mlp): MllamaTextMLP(\n              (gate_proj): lora.Linear(\n                (base_layer): Linear(in_features=4096, out_features=14336, bias=False)\n                (lora_dropout): ModuleDict(\n                  (default): Dropout(p=0.05, inplace=False)\n                )\n                (lora_A): ModuleDict(\n                  (default): Linear(in_features=4096, out_features=16, bias=False)\n                )\n                (lora_B): ModuleDict(\n                  (default): Linear(in_features=16, out_features=14336, bias=False)\n                )\n                (lora_embedding_A): ParameterDict()\n                (lora_embedding_B): ParameterDict()\n                (lora_magnitude_vector): ModuleDict()\n              )\n              (up_proj): lora.Linear(\n                (base_layer): Linear(in_features=4096, out_features=14336, bias=False)\n                (lora_dropout): ModuleDict(\n                  (default): Dropout(p=0.05, inplace=False)\n                )\n                (lora_A): ModuleDict(\n                  (default): Linear(in_features=4096, out_features=16, bias=False)\n                )\n                (lora_B): ModuleDict(\n                  (default): Linear(in_features=16, out_features=14336, bias=False)\n                )\n                (lora_embedding_A): ParameterDict()\n                (lora_embedding_B): ParameterDict()\n                (lora_magnitude_vector): ModuleDict()\n              )\n              (down_proj): lora.Linear(\n                (base_layer): Linear(in_features=14336, out_features=4096, bias=False)\n                (lora_dropout): ModuleDict(\n                  (default): Dropout(p=0.05, inplace=False)\n                )\n                (lora_A): ModuleDict(\n                  (default): Linear(in_features=14336, out_features=16, bias=False)\n                )\n                (lora_B): ModuleDict(\n                  (default): Linear(in_features=16, out_features=4096, bias=False)\n                )\n                (lora_embedding_A): ParameterDict()\n                (lora_embedding_B): ParameterDict()\n                (lora_magnitude_vector): ModuleDict()\n              )\n              (act_fn): SiLU()\n            )\n            (post_attention_layernorm): MllamaTextRMSNorm((4096,), eps=1e-05)\n          )\n          (19-22): 4 x MllamaSelfAttentionDecoderLayer(\n            (self_attn): MllamaTextSelfSdpaAttention(\n              (q_proj): lora.Linear(\n                (base_layer): Linear(in_features=4096, out_features=4096, bias=False)\n                (lora_dropout): ModuleDict(\n                  (default): Dropout(p=0.05, inplace=False)\n                )\n                (lora_A): ModuleDict(\n                  (default): Linear(in_features=4096, out_features=16, bias=False)\n                )\n                (lora_B): ModuleDict(\n                  (default): Linear(in_features=16, out_features=4096, bias=False)\n                )\n                (lora_embedding_A): ParameterDict()\n                (lora_embedding_B): ParameterDict()\n                (lora_magnitude_vector): ModuleDict()\n              )\n              (k_proj): lora.Linear(\n                (base_layer): Linear(in_features=4096, out_features=1024, bias=False)\n                (lora_dropout): ModuleDict(\n                  (default): Dropout(p=0.05, inplace=False)\n                )\n                (lora_A): ModuleDict(\n                  (default): Linear(in_features=4096, out_features=16, bias=False)\n                )\n                (lora_B): ModuleDict(\n                  (default): Linear(in_features=16, out_features=1024, bias=False)\n                )\n                (lora_embedding_A): ParameterDict()\n                (lora_embedding_B): ParameterDict()\n                (lora_magnitude_vector): ModuleDict()\n              )\n              (v_proj): lora.Linear(\n                (base_layer): Linear(in_features=4096, out_features=1024, bias=False)\n                (lora_dropout): ModuleDict(\n                  (default): Dropout(p=0.05, inplace=False)\n                )\n                (lora_A): ModuleDict(\n                  (default): Linear(in_features=4096, out_features=16, bias=False)\n                )\n                (lora_B): ModuleDict(\n                  (default): Linear(in_features=16, out_features=1024, bias=False)\n                )\n                (lora_embedding_A): ParameterDict()\n                (lora_embedding_B): ParameterDict()\n                (lora_magnitude_vector): ModuleDict()\n              )\n              (o_proj): lora.Linear(\n                (base_layer): Linear(in_features=4096, out_features=4096, bias=False)\n                (lora_dropout): ModuleDict(\n                  (default): Dropout(p=0.05, inplace=False)\n                )\n                (lora_A): ModuleDict(\n                  (default): Linear(in_features=4096, out_features=16, bias=False)\n                )\n                (lora_B): ModuleDict(\n                  (default): Linear(in_features=16, out_features=4096, bias=False)\n                )\n                (lora_embedding_A): ParameterDict()\n                (lora_embedding_B): ParameterDict()\n                (lora_magnitude_vector): ModuleDict()\n              )\n            )\n            (mlp): MllamaTextMLP(\n              (gate_proj): lora.Linear(\n                (base_layer): Linear(in_features=4096, out_features=14336, bias=False)\n                (lora_dropout): ModuleDict(\n                  (default): Dropout(p=0.05, inplace=False)\n                )\n                (lora_A): ModuleDict(\n                  (default): Linear(in_features=4096, out_features=16, bias=False)\n                )\n                (lora_B): ModuleDict(\n                  (default): Linear(in_features=16, out_features=14336, bias=False)\n                )\n                (lora_embedding_A): ParameterDict()\n                (lora_embedding_B): ParameterDict()\n                (lora_magnitude_vector): ModuleDict()\n              )\n              (up_proj): lora.Linear(\n                (base_layer): Linear(in_features=4096, out_features=14336, bias=False)\n                (lora_dropout): ModuleDict(\n                  (default): Dropout(p=0.05, inplace=False)\n                )\n                (lora_A): ModuleDict(\n                  (default): Linear(in_features=4096, out_features=16, bias=False)\n                )\n                (lora_B): ModuleDict(\n                  (default): Linear(in_features=16, out_features=14336, bias=False)\n                )\n                (lora_embedding_A): ParameterDict()\n                (lora_embedding_B): ParameterDict()\n                (lora_magnitude_vector): ModuleDict()\n              )\n              (down_proj): lora.Linear(\n                (base_layer): Linear(in_features=14336, out_features=4096, bias=False)\n                (lora_dropout): ModuleDict(\n                  (default): Dropout(p=0.05, inplace=False)\n                )\n                (lora_A): ModuleDict(\n                  (default): Linear(in_features=14336, out_features=16, bias=False)\n                )\n                (lora_B): ModuleDict(\n                  (default): Linear(in_features=16, out_features=4096, bias=False)\n                )\n                (lora_embedding_A): ParameterDict()\n                (lora_embedding_B): ParameterDict()\n                (lora_magnitude_vector): ModuleDict()\n              )\n              (act_fn): SiLU()\n            )\n            (input_layernorm): MllamaTextRMSNorm((4096,), eps=1e-05)\n            (post_attention_layernorm): MllamaTextRMSNorm((4096,), eps=1e-05)\n          )\n          (23): MllamaCrossAttentionDecoderLayer(\n            (cross_attn): MllamaTextCrossSdpaAttention(\n              (q_proj): lora.Linear(\n                (base_layer): Linear(in_features=4096, out_features=4096, bias=False)\n                (lora_dropout): ModuleDict(\n                  (default): Dropout(p=0.05, inplace=False)\n                )\n                (lora_A): ModuleDict(\n                  (default): Linear(in_features=4096, out_features=16, bias=False)\n                )\n                (lora_B): ModuleDict(\n                  (default): Linear(in_features=16, out_features=4096, bias=False)\n                )\n                (lora_embedding_A): ParameterDict()\n                (lora_embedding_B): ParameterDict()\n                (lora_magnitude_vector): ModuleDict()\n              )\n              (k_proj): lora.Linear(\n                (base_layer): Linear(in_features=4096, out_features=1024, bias=False)\n                (lora_dropout): ModuleDict(\n                  (default): Dropout(p=0.05, inplace=False)\n                )\n                (lora_A): ModuleDict(\n                  (default): Linear(in_features=4096, out_features=16, bias=False)\n                )\n                (lora_B): ModuleDict(\n                  (default): Linear(in_features=16, out_features=1024, bias=False)\n                )\n                (lora_embedding_A): ParameterDict()\n                (lora_embedding_B): ParameterDict()\n                (lora_magnitude_vector): ModuleDict()\n              )\n              (v_proj): lora.Linear(\n                (base_layer): Linear(in_features=4096, out_features=1024, bias=False)\n                (lora_dropout): ModuleDict(\n                  (default): Dropout(p=0.05, inplace=False)\n                )\n                (lora_A): ModuleDict(\n                  (default): Linear(in_features=4096, out_features=16, bias=False)\n                )\n                (lora_B): ModuleDict(\n                  (default): Linear(in_features=16, out_features=1024, bias=False)\n                )\n                (lora_embedding_A): ParameterDict()\n                (lora_embedding_B): ParameterDict()\n                (lora_magnitude_vector): ModuleDict()\n              )\n              (o_proj): lora.Linear(\n                (base_layer): Linear(in_features=4096, out_features=4096, bias=False)\n                (lora_dropout): ModuleDict(\n                  (default): Dropout(p=0.05, inplace=False)\n                )\n                (lora_A): ModuleDict(\n                  (default): Linear(in_features=4096, out_features=16, bias=False)\n                )\n                (lora_B): ModuleDict(\n                  (default): Linear(in_features=16, out_features=4096, bias=False)\n                )\n                (lora_embedding_A): ParameterDict()\n                (lora_embedding_B): ParameterDict()\n                (lora_magnitude_vector): ModuleDict()\n              )\n              (q_norm): MllamaTextRMSNorm((128,), eps=1e-05)\n              (k_norm): MllamaTextRMSNorm((128,), eps=1e-05)\n            )\n            (input_layernorm): MllamaTextRMSNorm((4096,), eps=1e-05)\n            (mlp): MllamaTextMLP(\n              (gate_proj): lora.Linear(\n                (base_layer): Linear(in_features=4096, out_features=14336, bias=False)\n                (lora_dropout): ModuleDict(\n                  (default): Dropout(p=0.05, inplace=False)\n                )\n                (lora_A): ModuleDict(\n                  (default): Linear(in_features=4096, out_features=16, bias=False)\n                )\n                (lora_B): ModuleDict(\n                  (default): Linear(in_features=16, out_features=14336, bias=False)\n                )\n                (lora_embedding_A): ParameterDict()\n                (lora_embedding_B): ParameterDict()\n                (lora_magnitude_vector): ModuleDict()\n              )\n              (up_proj): lora.Linear(\n                (base_layer): Linear(in_features=4096, out_features=14336, bias=False)\n                (lora_dropout): ModuleDict(\n                  (default): Dropout(p=0.05, inplace=False)\n                )\n                (lora_A): ModuleDict(\n                  (default): Linear(in_features=4096, out_features=16, bias=False)\n                )\n                (lora_B): ModuleDict(\n                  (default): Linear(in_features=16, out_features=14336, bias=False)\n                )\n                (lora_embedding_A): ParameterDict()\n                (lora_embedding_B): ParameterDict()\n                (lora_magnitude_vector): ModuleDict()\n              )\n              (down_proj): lora.Linear(\n                (base_layer): Linear(in_features=14336, out_features=4096, bias=False)\n                (lora_dropout): ModuleDict(\n                  (default): Dropout(p=0.05, inplace=False)\n                )\n                (lora_A): ModuleDict(\n                  (default): Linear(in_features=14336, out_features=16, bias=False)\n                )\n                (lora_B): ModuleDict(\n                  (default): Linear(in_features=16, out_features=4096, bias=False)\n                )\n                (lora_embedding_A): ParameterDict()\n                (lora_embedding_B): ParameterDict()\n                (lora_magnitude_vector): ModuleDict()\n              )\n              (act_fn): SiLU()\n            )\n            (post_attention_layernorm): MllamaTextRMSNorm((4096,), eps=1e-05)\n          )\n          (24-27): 4 x MllamaSelfAttentionDecoderLayer(\n            (self_attn): MllamaTextSelfSdpaAttention(\n              (q_proj): lora.Linear(\n                (base_layer): Linear(in_features=4096, out_features=4096, bias=False)\n                (lora_dropout): ModuleDict(\n                  (default): Dropout(p=0.05, inplace=False)\n                )\n                (lora_A): ModuleDict(\n                  (default): Linear(in_features=4096, out_features=16, bias=False)\n                )\n                (lora_B): ModuleDict(\n                  (default): Linear(in_features=16, out_features=4096, bias=False)\n                )\n                (lora_embedding_A): ParameterDict()\n                (lora_embedding_B): ParameterDict()\n                (lora_magnitude_vector): ModuleDict()\n              )\n              (k_proj): lora.Linear(\n                (base_layer): Linear(in_features=4096, out_features=1024, bias=False)\n                (lora_dropout): ModuleDict(\n                  (default): Dropout(p=0.05, inplace=False)\n                )\n                (lora_A): ModuleDict(\n                  (default): Linear(in_features=4096, out_features=16, bias=False)\n                )\n                (lora_B): ModuleDict(\n                  (default): Linear(in_features=16, out_features=1024, bias=False)\n                )\n                (lora_embedding_A): ParameterDict()\n                (lora_embedding_B): ParameterDict()\n                (lora_magnitude_vector): ModuleDict()\n              )\n              (v_proj): lora.Linear(\n                (base_layer): Linear(in_features=4096, out_features=1024, bias=False)\n                (lora_dropout): ModuleDict(\n                  (default): Dropout(p=0.05, inplace=False)\n                )\n                (lora_A): ModuleDict(\n                  (default): Linear(in_features=4096, out_features=16, bias=False)\n                )\n                (lora_B): ModuleDict(\n                  (default): Linear(in_features=16, out_features=1024, bias=False)\n                )\n                (lora_embedding_A): ParameterDict()\n                (lora_embedding_B): ParameterDict()\n                (lora_magnitude_vector): ModuleDict()\n              )\n              (o_proj): lora.Linear(\n                (base_layer): Linear(in_features=4096, out_features=4096, bias=False)\n                (lora_dropout): ModuleDict(\n                  (default): Dropout(p=0.05, inplace=False)\n                )\n                (lora_A): ModuleDict(\n                  (default): Linear(in_features=4096, out_features=16, bias=False)\n                )\n                (lora_B): ModuleDict(\n                  (default): Linear(in_features=16, out_features=4096, bias=False)\n                )\n                (lora_embedding_A): ParameterDict()\n                (lora_embedding_B): ParameterDict()\n                (lora_magnitude_vector): ModuleDict()\n              )\n            )\n            (mlp): MllamaTextMLP(\n              (gate_proj): lora.Linear(\n                (base_layer): Linear(in_features=4096, out_features=14336, bias=False)\n                (lora_dropout): ModuleDict(\n                  (default): Dropout(p=0.05, inplace=False)\n                )\n                (lora_A): ModuleDict(\n                  (default): Linear(in_features=4096, out_features=16, bias=False)\n                )\n                (lora_B): ModuleDict(\n                  (default): Linear(in_features=16, out_features=14336, bias=False)\n                )\n                (lora_embedding_A): ParameterDict()\n                (lora_embedding_B): ParameterDict()\n                (lora_magnitude_vector): ModuleDict()\n              )\n              (up_proj): lora.Linear(\n                (base_layer): Linear(in_features=4096, out_features=14336, bias=False)\n                (lora_dropout): ModuleDict(\n                  (default): Dropout(p=0.05, inplace=False)\n                )\n                (lora_A): ModuleDict(\n                  (default): Linear(in_features=4096, out_features=16, bias=False)\n                )\n                (lora_B): ModuleDict(\n                  (default): Linear(in_features=16, out_features=14336, bias=False)\n                )\n                (lora_embedding_A): ParameterDict()\n                (lora_embedding_B): ParameterDict()\n                (lora_magnitude_vector): ModuleDict()\n              )\n              (down_proj): lora.Linear(\n                (base_layer): Linear(in_features=14336, out_features=4096, bias=False)\n                (lora_dropout): ModuleDict(\n                  (default): Dropout(p=0.05, inplace=False)\n                )\n                (lora_A): ModuleDict(\n                  (default): Linear(in_features=14336, out_features=16, bias=False)\n                )\n                (lora_B): ModuleDict(\n                  (default): Linear(in_features=16, out_features=4096, bias=False)\n                )\n                (lora_embedding_A): ParameterDict()\n                (lora_embedding_B): ParameterDict()\n                (lora_magnitude_vector): ModuleDict()\n              )\n              (act_fn): SiLU()\n            )\n            (input_layernorm): MllamaTextRMSNorm((4096,), eps=1e-05)\n            (post_attention_layernorm): MllamaTextRMSNorm((4096,), eps=1e-05)\n          )\n          (28): MllamaCrossAttentionDecoderLayer(\n            (cross_attn): MllamaTextCrossSdpaAttention(\n              (q_proj): lora.Linear(\n                (base_layer): Linear(in_features=4096, out_features=4096, bias=False)\n                (lora_dropout): ModuleDict(\n                  (default): Dropout(p=0.05, inplace=False)\n                )\n                (lora_A): ModuleDict(\n                  (default): Linear(in_features=4096, out_features=16, bias=False)\n                )\n                (lora_B): ModuleDict(\n                  (default): Linear(in_features=16, out_features=4096, bias=False)\n                )\n                (lora_embedding_A): ParameterDict()\n                (lora_embedding_B): ParameterDict()\n                (lora_magnitude_vector): ModuleDict()\n              )\n              (k_proj): lora.Linear(\n                (base_layer): Linear(in_features=4096, out_features=1024, bias=False)\n                (lora_dropout): ModuleDict(\n                  (default): Dropout(p=0.05, inplace=False)\n                )\n                (lora_A): ModuleDict(\n                  (default): Linear(in_features=4096, out_features=16, bias=False)\n                )\n                (lora_B): ModuleDict(\n                  (default): Linear(in_features=16, out_features=1024, bias=False)\n                )\n                (lora_embedding_A): ParameterDict()\n                (lora_embedding_B): ParameterDict()\n                (lora_magnitude_vector): ModuleDict()\n              )\n              (v_proj): lora.Linear(\n                (base_layer): Linear(in_features=4096, out_features=1024, bias=False)\n                (lora_dropout): ModuleDict(\n                  (default): Dropout(p=0.05, inplace=False)\n                )\n                (lora_A): ModuleDict(\n                  (default): Linear(in_features=4096, out_features=16, bias=False)\n                )\n                (lora_B): ModuleDict(\n                  (default): Linear(in_features=16, out_features=1024, bias=False)\n                )\n                (lora_embedding_A): ParameterDict()\n                (lora_embedding_B): ParameterDict()\n                (lora_magnitude_vector): ModuleDict()\n              )\n              (o_proj): lora.Linear(\n                (base_layer): Linear(in_features=4096, out_features=4096, bias=False)\n                (lora_dropout): ModuleDict(\n                  (default): Dropout(p=0.05, inplace=False)\n                )\n                (lora_A): ModuleDict(\n                  (default): Linear(in_features=4096, out_features=16, bias=False)\n                )\n                (lora_B): ModuleDict(\n                  (default): Linear(in_features=16, out_features=4096, bias=False)\n                )\n                (lora_embedding_A): ParameterDict()\n                (lora_embedding_B): ParameterDict()\n                (lora_magnitude_vector): ModuleDict()\n              )\n              (q_norm): MllamaTextRMSNorm((128,), eps=1e-05)\n              (k_norm): MllamaTextRMSNorm((128,), eps=1e-05)\n            )\n            (input_layernorm): MllamaTextRMSNorm((4096,), eps=1e-05)\n            (mlp): MllamaTextMLP(\n              (gate_proj): lora.Linear(\n                (base_layer): Linear(in_features=4096, out_features=14336, bias=False)\n                (lora_dropout): ModuleDict(\n                  (default): Dropout(p=0.05, inplace=False)\n                )\n                (lora_A): ModuleDict(\n                  (default): Linear(in_features=4096, out_features=16, bias=False)\n                )\n                (lora_B): ModuleDict(\n                  (default): Linear(in_features=16, out_features=14336, bias=False)\n                )\n                (lora_embedding_A): ParameterDict()\n                (lora_embedding_B): ParameterDict()\n                (lora_magnitude_vector): ModuleDict()\n              )\n              (up_proj): lora.Linear(\n                (base_layer): Linear(in_features=4096, out_features=14336, bias=False)\n                (lora_dropout): ModuleDict(\n                  (default): Dropout(p=0.05, inplace=False)\n                )\n                (lora_A): ModuleDict(\n                  (default): Linear(in_features=4096, out_features=16, bias=False)\n                )\n                (lora_B): ModuleDict(\n                  (default): Linear(in_features=16, out_features=14336, bias=False)\n                )\n                (lora_embedding_A): ParameterDict()\n                (lora_embedding_B): ParameterDict()\n                (lora_magnitude_vector): ModuleDict()\n              )\n              (down_proj): lora.Linear(\n                (base_layer): Linear(in_features=14336, out_features=4096, bias=False)\n                (lora_dropout): ModuleDict(\n                  (default): Dropout(p=0.05, inplace=False)\n                )\n                (lora_A): ModuleDict(\n                  (default): Linear(in_features=14336, out_features=16, bias=False)\n                )\n                (lora_B): ModuleDict(\n                  (default): Linear(in_features=16, out_features=4096, bias=False)\n                )\n                (lora_embedding_A): ParameterDict()\n                (lora_embedding_B): ParameterDict()\n                (lora_magnitude_vector): ModuleDict()\n              )\n              (act_fn): SiLU()\n            )\n            (post_attention_layernorm): MllamaTextRMSNorm((4096,), eps=1e-05)\n          )\n          (29-32): 4 x MllamaSelfAttentionDecoderLayer(\n            (self_attn): MllamaTextSelfSdpaAttention(\n              (q_proj): lora.Linear(\n                (base_layer): Linear(in_features=4096, out_features=4096, bias=False)\n                (lora_dropout): ModuleDict(\n                  (default): Dropout(p=0.05, inplace=False)\n                )\n                (lora_A): ModuleDict(\n                  (default): Linear(in_features=4096, out_features=16, bias=False)\n                )\n                (lora_B): ModuleDict(\n                  (default): Linear(in_features=16, out_features=4096, bias=False)\n                )\n                (lora_embedding_A): ParameterDict()\n                (lora_embedding_B): ParameterDict()\n                (lora_magnitude_vector): ModuleDict()\n              )\n              (k_proj): lora.Linear(\n                (base_layer): Linear(in_features=4096, out_features=1024, bias=False)\n                (lora_dropout): ModuleDict(\n                  (default): Dropout(p=0.05, inplace=False)\n                )\n                (lora_A): ModuleDict(\n                  (default): Linear(in_features=4096, out_features=16, bias=False)\n                )\n                (lora_B): ModuleDict(\n                  (default): Linear(in_features=16, out_features=1024, bias=False)\n                )\n                (lora_embedding_A): ParameterDict()\n                (lora_embedding_B): ParameterDict()\n                (lora_magnitude_vector): ModuleDict()\n              )\n              (v_proj): lora.Linear(\n                (base_layer): Linear(in_features=4096, out_features=1024, bias=False)\n                (lora_dropout): ModuleDict(\n                  (default): Dropout(p=0.05, inplace=False)\n                )\n                (lora_A): ModuleDict(\n                  (default): Linear(in_features=4096, out_features=16, bias=False)\n                )\n                (lora_B): ModuleDict(\n                  (default): Linear(in_features=16, out_features=1024, bias=False)\n                )\n                (lora_embedding_A): ParameterDict()\n                (lora_embedding_B): ParameterDict()\n                (lora_magnitude_vector): ModuleDict()\n              )\n              (o_proj): lora.Linear(\n                (base_layer): Linear(in_features=4096, out_features=4096, bias=False)\n                (lora_dropout): ModuleDict(\n                  (default): Dropout(p=0.05, inplace=False)\n                )\n                (lora_A): ModuleDict(\n                  (default): Linear(in_features=4096, out_features=16, bias=False)\n                )\n                (lora_B): ModuleDict(\n                  (default): Linear(in_features=16, out_features=4096, bias=False)\n                )\n                (lora_embedding_A): ParameterDict()\n                (lora_embedding_B): ParameterDict()\n                (lora_magnitude_vector): ModuleDict()\n              )\n            )\n            (mlp): MllamaTextMLP(\n              (gate_proj): lora.Linear(\n                (base_layer): Linear(in_features=4096, out_features=14336, bias=False)\n                (lora_dropout): ModuleDict(\n                  (default): Dropout(p=0.05, inplace=False)\n                )\n                (lora_A): ModuleDict(\n                  (default): Linear(in_features=4096, out_features=16, bias=False)\n                )\n                (lora_B): ModuleDict(\n                  (default): Linear(in_features=16, out_features=14336, bias=False)\n                )\n                (lora_embedding_A): ParameterDict()\n                (lora_embedding_B): ParameterDict()\n                (lora_magnitude_vector): ModuleDict()\n              )\n              (up_proj): lora.Linear(\n                (base_layer): Linear(in_features=4096, out_features=14336, bias=False)\n                (lora_dropout): ModuleDict(\n                  (default): Dropout(p=0.05, inplace=False)\n                )\n                (lora_A): ModuleDict(\n                  (default): Linear(in_features=4096, out_features=16, bias=False)\n                )\n                (lora_B): ModuleDict(\n                  (default): Linear(in_features=16, out_features=14336, bias=False)\n                )\n                (lora_embedding_A): ParameterDict()\n                (lora_embedding_B): ParameterDict()\n                (lora_magnitude_vector): ModuleDict()\n              )\n              (down_proj): lora.Linear(\n                (base_layer): Linear(in_features=14336, out_features=4096, bias=False)\n                (lora_dropout): ModuleDict(\n                  (default): Dropout(p=0.05, inplace=False)\n                )\n                (lora_A): ModuleDict(\n                  (default): Linear(in_features=14336, out_features=16, bias=False)\n                )\n                (lora_B): ModuleDict(\n                  (default): Linear(in_features=16, out_features=4096, bias=False)\n                )\n                (lora_embedding_A): ParameterDict()\n                (lora_embedding_B): ParameterDict()\n                (lora_magnitude_vector): ModuleDict()\n              )\n              (act_fn): SiLU()\n            )\n            (input_layernorm): MllamaTextRMSNorm((4096,), eps=1e-05)\n            (post_attention_layernorm): MllamaTextRMSNorm((4096,), eps=1e-05)\n          )\n          (33): MllamaCrossAttentionDecoderLayer(\n            (cross_attn): MllamaTextCrossSdpaAttention(\n              (q_proj): lora.Linear(\n                (base_layer): Linear(in_features=4096, out_features=4096, bias=False)\n                (lora_dropout): ModuleDict(\n                  (default): Dropout(p=0.05, inplace=False)\n                )\n                (lora_A): ModuleDict(\n                  (default): Linear(in_features=4096, out_features=16, bias=False)\n                )\n                (lora_B): ModuleDict(\n                  (default): Linear(in_features=16, out_features=4096, bias=False)\n                )\n                (lora_embedding_A): ParameterDict()\n                (lora_embedding_B): ParameterDict()\n                (lora_magnitude_vector): ModuleDict()\n              )\n              (k_proj): lora.Linear(\n                (base_layer): Linear(in_features=4096, out_features=1024, bias=False)\n                (lora_dropout): ModuleDict(\n                  (default): Dropout(p=0.05, inplace=False)\n                )\n                (lora_A): ModuleDict(\n                  (default): Linear(in_features=4096, out_features=16, bias=False)\n                )\n                (lora_B): ModuleDict(\n                  (default): Linear(in_features=16, out_features=1024, bias=False)\n                )\n                (lora_embedding_A): ParameterDict()\n                (lora_embedding_B): ParameterDict()\n                (lora_magnitude_vector): ModuleDict()\n              )\n              (v_proj): lora.Linear(\n                (base_layer): Linear(in_features=4096, out_features=1024, bias=False)\n                (lora_dropout): ModuleDict(\n                  (default): Dropout(p=0.05, inplace=False)\n                )\n                (lora_A): ModuleDict(\n                  (default): Linear(in_features=4096, out_features=16, bias=False)\n                )\n                (lora_B): ModuleDict(\n                  (default): Linear(in_features=16, out_features=1024, bias=False)\n                )\n                (lora_embedding_A): ParameterDict()\n                (lora_embedding_B): ParameterDict()\n                (lora_magnitude_vector): ModuleDict()\n              )\n              (o_proj): lora.Linear(\n                (base_layer): Linear(in_features=4096, out_features=4096, bias=False)\n                (lora_dropout): ModuleDict(\n                  (default): Dropout(p=0.05, inplace=False)\n                )\n                (lora_A): ModuleDict(\n                  (default): Linear(in_features=4096, out_features=16, bias=False)\n                )\n                (lora_B): ModuleDict(\n                  (default): Linear(in_features=16, out_features=4096, bias=False)\n                )\n                (lora_embedding_A): ParameterDict()\n                (lora_embedding_B): ParameterDict()\n                (lora_magnitude_vector): ModuleDict()\n              )\n              (q_norm): MllamaTextRMSNorm((128,), eps=1e-05)\n              (k_norm): MllamaTextRMSNorm((128,), eps=1e-05)\n            )\n            (input_layernorm): MllamaTextRMSNorm((4096,), eps=1e-05)\n            (mlp): MllamaTextMLP(\n              (gate_proj): lora.Linear(\n                (base_layer): Linear(in_features=4096, out_features=14336, bias=False)\n                (lora_dropout): ModuleDict(\n                  (default): Dropout(p=0.05, inplace=False)\n                )\n                (lora_A): ModuleDict(\n                  (default): Linear(in_features=4096, out_features=16, bias=False)\n                )\n                (lora_B): ModuleDict(\n                  (default): Linear(in_features=16, out_features=14336, bias=False)\n                )\n                (lora_embedding_A): ParameterDict()\n                (lora_embedding_B): ParameterDict()\n                (lora_magnitude_vector): ModuleDict()\n              )\n              (up_proj): lora.Linear(\n                (base_layer): Linear(in_features=4096, out_features=14336, bias=False)\n                (lora_dropout): ModuleDict(\n                  (default): Dropout(p=0.05, inplace=False)\n                )\n                (lora_A): ModuleDict(\n                  (default): Linear(in_features=4096, out_features=16, bias=False)\n                )\n                (lora_B): ModuleDict(\n                  (default): Linear(in_features=16, out_features=14336, bias=False)\n                )\n                (lora_embedding_A): ParameterDict()\n                (lora_embedding_B): ParameterDict()\n                (lora_magnitude_vector): ModuleDict()\n              )\n              (down_proj): lora.Linear(\n                (base_layer): Linear(in_features=14336, out_features=4096, bias=False)\n                (lora_dropout): ModuleDict(\n                  (default): Dropout(p=0.05, inplace=False)\n                )\n                (lora_A): ModuleDict(\n                  (default): Linear(in_features=14336, out_features=16, bias=False)\n                )\n                (lora_B): ModuleDict(\n                  (default): Linear(in_features=16, out_features=4096, bias=False)\n                )\n                (lora_embedding_A): ParameterDict()\n                (lora_embedding_B): ParameterDict()\n                (lora_magnitude_vector): ModuleDict()\n              )\n              (act_fn): SiLU()\n            )\n            (post_attention_layernorm): MllamaTextRMSNorm((4096,), eps=1e-05)\n          )\n          (34-37): 4 x MllamaSelfAttentionDecoderLayer(\n            (self_attn): MllamaTextSelfSdpaAttention(\n              (q_proj): lora.Linear(\n                (base_layer): Linear(in_features=4096, out_features=4096, bias=False)\n                (lora_dropout): ModuleDict(\n                  (default): Dropout(p=0.05, inplace=False)\n                )\n                (lora_A): ModuleDict(\n                  (default): Linear(in_features=4096, out_features=16, bias=False)\n                )\n                (lora_B): ModuleDict(\n                  (default): Linear(in_features=16, out_features=4096, bias=False)\n                )\n                (lora_embedding_A): ParameterDict()\n                (lora_embedding_B): ParameterDict()\n                (lora_magnitude_vector): ModuleDict()\n              )\n              (k_proj): lora.Linear(\n                (base_layer): Linear(in_features=4096, out_features=1024, bias=False)\n                (lora_dropout): ModuleDict(\n                  (default): Dropout(p=0.05, inplace=False)\n                )\n                (lora_A): ModuleDict(\n                  (default): Linear(in_features=4096, out_features=16, bias=False)\n                )\n                (lora_B): ModuleDict(\n                  (default): Linear(in_features=16, out_features=1024, bias=False)\n                )\n                (lora_embedding_A): ParameterDict()\n                (lora_embedding_B): ParameterDict()\n                (lora_magnitude_vector): ModuleDict()\n              )\n              (v_proj): lora.Linear(\n                (base_layer): Linear(in_features=4096, out_features=1024, bias=False)\n                (lora_dropout): ModuleDict(\n                  (default): Dropout(p=0.05, inplace=False)\n                )\n                (lora_A): ModuleDict(\n                  (default): Linear(in_features=4096, out_features=16, bias=False)\n                )\n                (lora_B): ModuleDict(\n                  (default): Linear(in_features=16, out_features=1024, bias=False)\n                )\n                (lora_embedding_A): ParameterDict()\n                (lora_embedding_B): ParameterDict()\n                (lora_magnitude_vector): ModuleDict()\n              )\n              (o_proj): lora.Linear(\n                (base_layer): Linear(in_features=4096, out_features=4096, bias=False)\n                (lora_dropout): ModuleDict(\n                  (default): Dropout(p=0.05, inplace=False)\n                )\n                (lora_A): ModuleDict(\n                  (default): Linear(in_features=4096, out_features=16, bias=False)\n                )\n                (lora_B): ModuleDict(\n                  (default): Linear(in_features=16, out_features=4096, bias=False)\n                )\n                (lora_embedding_A): ParameterDict()\n                (lora_embedding_B): ParameterDict()\n                (lora_magnitude_vector): ModuleDict()\n              )\n            )\n            (mlp): MllamaTextMLP(\n              (gate_proj): lora.Linear(\n                (base_layer): Linear(in_features=4096, out_features=14336, bias=False)\n                (lora_dropout): ModuleDict(\n                  (default): Dropout(p=0.05, inplace=False)\n                )\n                (lora_A): ModuleDict(\n                  (default): Linear(in_features=4096, out_features=16, bias=False)\n                )\n                (lora_B): ModuleDict(\n                  (default): Linear(in_features=16, out_features=14336, bias=False)\n                )\n                (lora_embedding_A): ParameterDict()\n                (lora_embedding_B): ParameterDict()\n                (lora_magnitude_vector): ModuleDict()\n              )\n              (up_proj): lora.Linear(\n                (base_layer): Linear(in_features=4096, out_features=14336, bias=False)\n                (lora_dropout): ModuleDict(\n                  (default): Dropout(p=0.05, inplace=False)\n                )\n                (lora_A): ModuleDict(\n                  (default): Linear(in_features=4096, out_features=16, bias=False)\n                )\n                (lora_B): ModuleDict(\n                  (default): Linear(in_features=16, out_features=14336, bias=False)\n                )\n                (lora_embedding_A): ParameterDict()\n                (lora_embedding_B): ParameterDict()\n                (lora_magnitude_vector): ModuleDict()\n              )\n              (down_proj): lora.Linear(\n                (base_layer): Linear(in_features=14336, out_features=4096, bias=False)\n                (lora_dropout): ModuleDict(\n                  (default): Dropout(p=0.05, inplace=False)\n                )\n                (lora_A): ModuleDict(\n                  (default): Linear(in_features=14336, out_features=16, bias=False)\n                )\n                (lora_B): ModuleDict(\n                  (default): Linear(in_features=16, out_features=4096, bias=False)\n                )\n                (lora_embedding_A): ParameterDict()\n                (lora_embedding_B): ParameterDict()\n                (lora_magnitude_vector): ModuleDict()\n              )\n              (act_fn): SiLU()\n            )\n            (input_layernorm): MllamaTextRMSNorm((4096,), eps=1e-05)\n            (post_attention_layernorm): MllamaTextRMSNorm((4096,), eps=1e-05)\n          )\n          (38): MllamaCrossAttentionDecoderLayer(\n            (cross_attn): MllamaTextCrossSdpaAttention(\n              (q_proj): lora.Linear(\n                (base_layer): Linear(in_features=4096, out_features=4096, bias=False)\n                (lora_dropout): ModuleDict(\n                  (default): Dropout(p=0.05, inplace=False)\n                )\n                (lora_A): ModuleDict(\n                  (default): Linear(in_features=4096, out_features=16, bias=False)\n                )\n                (lora_B): ModuleDict(\n                  (default): Linear(in_features=16, out_features=4096, bias=False)\n                )\n                (lora_embedding_A): ParameterDict()\n                (lora_embedding_B): ParameterDict()\n                (lora_magnitude_vector): ModuleDict()\n              )\n              (k_proj): lora.Linear(\n                (base_layer): Linear(in_features=4096, out_features=1024, bias=False)\n                (lora_dropout): ModuleDict(\n                  (default): Dropout(p=0.05, inplace=False)\n                )\n                (lora_A): ModuleDict(\n                  (default): Linear(in_features=4096, out_features=16, bias=False)\n                )\n                (lora_B): ModuleDict(\n                  (default): Linear(in_features=16, out_features=1024, bias=False)\n                )\n                (lora_embedding_A): ParameterDict()\n                (lora_embedding_B): ParameterDict()\n                (lora_magnitude_vector): ModuleDict()\n              )\n              (v_proj): lora.Linear(\n                (base_layer): Linear(in_features=4096, out_features=1024, bias=False)\n                (lora_dropout): ModuleDict(\n                  (default): Dropout(p=0.05, inplace=False)\n                )\n                (lora_A): ModuleDict(\n                  (default): Linear(in_features=4096, out_features=16, bias=False)\n                )\n                (lora_B): ModuleDict(\n                  (default): Linear(in_features=16, out_features=1024, bias=False)\n                )\n                (lora_embedding_A): ParameterDict()\n                (lora_embedding_B): ParameterDict()\n                (lora_magnitude_vector): ModuleDict()\n              )\n              (o_proj): lora.Linear(\n                (base_layer): Linear(in_features=4096, out_features=4096, bias=False)\n                (lora_dropout): ModuleDict(\n                  (default): Dropout(p=0.05, inplace=False)\n                )\n                (lora_A): ModuleDict(\n                  (default): Linear(in_features=4096, out_features=16, bias=False)\n                )\n                (lora_B): ModuleDict(\n                  (default): Linear(in_features=16, out_features=4096, bias=False)\n                )\n                (lora_embedding_A): ParameterDict()\n                (lora_embedding_B): ParameterDict()\n                (lora_magnitude_vector): ModuleDict()\n              )\n              (q_norm): MllamaTextRMSNorm((128,), eps=1e-05)\n              (k_norm): MllamaTextRMSNorm((128,), eps=1e-05)\n            )\n            (input_layernorm): MllamaTextRMSNorm((4096,), eps=1e-05)\n            (mlp): MllamaTextMLP(\n              (gate_proj): lora.Linear(\n                (base_layer): Linear(in_features=4096, out_features=14336, bias=False)\n                (lora_dropout): ModuleDict(\n                  (default): Dropout(p=0.05, inplace=False)\n                )\n                (lora_A): ModuleDict(\n                  (default): Linear(in_features=4096, out_features=16, bias=False)\n                )\n                (lora_B): ModuleDict(\n                  (default): Linear(in_features=16, out_features=14336, bias=False)\n                )\n                (lora_embedding_A): ParameterDict()\n                (lora_embedding_B): ParameterDict()\n                (lora_magnitude_vector): ModuleDict()\n              )\n              (up_proj): lora.Linear(\n                (base_layer): Linear(in_features=4096, out_features=14336, bias=False)\n                (lora_dropout): ModuleDict(\n                  (default): Dropout(p=0.05, inplace=False)\n                )\n                (lora_A): ModuleDict(\n                  (default): Linear(in_features=4096, out_features=16, bias=False)\n                )\n                (lora_B): ModuleDict(\n                  (default): Linear(in_features=16, out_features=14336, bias=False)\n                )\n                (lora_embedding_A): ParameterDict()\n                (lora_embedding_B): ParameterDict()\n                (lora_magnitude_vector): ModuleDict()\n              )\n              (down_proj): lora.Linear(\n                (base_layer): Linear(in_features=14336, out_features=4096, bias=False)\n                (lora_dropout): ModuleDict(\n                  (default): Dropout(p=0.05, inplace=False)\n                )\n                (lora_A): ModuleDict(\n                  (default): Linear(in_features=14336, out_features=16, bias=False)\n                )\n                (lora_B): ModuleDict(\n                  (default): Linear(in_features=16, out_features=4096, bias=False)\n                )\n                (lora_embedding_A): ParameterDict()\n                (lora_embedding_B): ParameterDict()\n                (lora_magnitude_vector): ModuleDict()\n              )\n              (act_fn): SiLU()\n            )\n            (post_attention_layernorm): MllamaTextRMSNorm((4096,), eps=1e-05)\n          )\n          (39): MllamaSelfAttentionDecoderLayer(\n            (self_attn): MllamaTextSelfSdpaAttention(\n              (q_proj): lora.Linear(\n                (base_layer): Linear(in_features=4096, out_features=4096, bias=False)\n                (lora_dropout): ModuleDict(\n                  (default): Dropout(p=0.05, inplace=False)\n                )\n                (lora_A): ModuleDict(\n                  (default): Linear(in_features=4096, out_features=16, bias=False)\n                )\n                (lora_B): ModuleDict(\n                  (default): Linear(in_features=16, out_features=4096, bias=False)\n                )\n                (lora_embedding_A): ParameterDict()\n                (lora_embedding_B): ParameterDict()\n                (lora_magnitude_vector): ModuleDict()\n              )\n              (k_proj): lora.Linear(\n                (base_layer): Linear(in_features=4096, out_features=1024, bias=False)\n                (lora_dropout): ModuleDict(\n                  (default): Dropout(p=0.05, inplace=False)\n                )\n                (lora_A): ModuleDict(\n                  (default): Linear(in_features=4096, out_features=16, bias=False)\n                )\n                (lora_B): ModuleDict(\n                  (default): Linear(in_features=16, out_features=1024, bias=False)\n                )\n                (lora_embedding_A): ParameterDict()\n                (lora_embedding_B): ParameterDict()\n                (lora_magnitude_vector): ModuleDict()\n              )\n              (v_proj): lora.Linear(\n                (base_layer): Linear(in_features=4096, out_features=1024, bias=False)\n                (lora_dropout): ModuleDict(\n                  (default): Dropout(p=0.05, inplace=False)\n                )\n                (lora_A): ModuleDict(\n                  (default): Linear(in_features=4096, out_features=16, bias=False)\n                )\n                (lora_B): ModuleDict(\n                  (default): Linear(in_features=16, out_features=1024, bias=False)\n                )\n                (lora_embedding_A): ParameterDict()\n                (lora_embedding_B): ParameterDict()\n                (lora_magnitude_vector): ModuleDict()\n              )\n              (o_proj): lora.Linear(\n                (base_layer): Linear(in_features=4096, out_features=4096, bias=False)\n                (lora_dropout): ModuleDict(\n                  (default): Dropout(p=0.05, inplace=False)\n                )\n                (lora_A): ModuleDict(\n                  (default): Linear(in_features=4096, out_features=16, bias=False)\n                )\n                (lora_B): ModuleDict(\n                  (default): Linear(in_features=16, out_features=4096, bias=False)\n                )\n                (lora_embedding_A): ParameterDict()\n                (lora_embedding_B): ParameterDict()\n                (lora_magnitude_vector): ModuleDict()\n              )\n            )\n            (mlp): MllamaTextMLP(\n              (gate_proj): lora.Linear(\n                (base_layer): Linear(in_features=4096, out_features=14336, bias=False)\n                (lora_dropout): ModuleDict(\n                  (default): Dropout(p=0.05, inplace=False)\n                )\n                (lora_A): ModuleDict(\n                  (default): Linear(in_features=4096, out_features=16, bias=False)\n                )\n                (lora_B): ModuleDict(\n                  (default): Linear(in_features=16, out_features=14336, bias=False)\n                )\n                (lora_embedding_A): ParameterDict()\n                (lora_embedding_B): ParameterDict()\n                (lora_magnitude_vector): ModuleDict()\n              )\n              (up_proj): lora.Linear(\n                (base_layer): Linear(in_features=4096, out_features=14336, bias=False)\n                (lora_dropout): ModuleDict(\n                  (default): Dropout(p=0.05, inplace=False)\n                )\n                (lora_A): ModuleDict(\n                  (default): Linear(in_features=4096, out_features=16, bias=False)\n                )\n                (lora_B): ModuleDict(\n                  (default): Linear(in_features=16, out_features=14336, bias=False)\n                )\n                (lora_embedding_A): ParameterDict()\n                (lora_embedding_B): ParameterDict()\n                (lora_magnitude_vector): ModuleDict()\n              )\n              (down_proj): lora.Linear(\n                (base_layer): Linear(in_features=14336, out_features=4096, bias=False)\n                (lora_dropout): ModuleDict(\n                  (default): Dropout(p=0.05, inplace=False)\n                )\n                (lora_A): ModuleDict(\n                  (default): Linear(in_features=14336, out_features=16, bias=False)\n                )\n                (lora_B): ModuleDict(\n                  (default): Linear(in_features=16, out_features=4096, bias=False)\n                )\n                (lora_embedding_A): ParameterDict()\n                (lora_embedding_B): ParameterDict()\n                (lora_magnitude_vector): ModuleDict()\n              )\n              (act_fn): SiLU()\n            )\n            (input_layernorm): MllamaTextRMSNorm((4096,), eps=1e-05)\n            (post_attention_layernorm): MllamaTextRMSNorm((4096,), eps=1e-05)\n          )\n        )\n        (norm): MllamaTextRMSNorm((4096,), eps=1e-05)\n        (rotary_emb): MllamaRotaryEmbedding()\n      )\n      (lm_head): lora.Linear(\n        (base_layer): Linear(in_features=4096, out_features=128256, bias=False)\n        (lora_dropout): ModuleDict(\n          (default): Dropout(p=0.05, inplace=False)\n        )\n        (lora_A): ModuleDict(\n          (default): Linear(in_features=4096, out_features=16, bias=False)\n        )\n        (lora_B): ModuleDict(\n          (default): Linear(in_features=16, out_features=128256, bias=False)\n        )\n        (lora_embedding_A): ParameterDict()\n        (lora_embedding_B): ParameterDict()\n        (lora_magnitude_vector): ModuleDict()\n      )\n    )\n  )\n)'. Please provide either the path to a local folder or the repo_id of a model on the Hub.","traceback":["\u001b[0;31m---------------------------------------------------------------
…
 your session.\n","You will be able to reuse this secret in all of your notebooks.\n","Please note that authentication is recommended but still optional to access public models or datasets.\n","  warnings.warn(\n"]},{"output_type":"display_data","data":{"text/plain":["Loading checkpoint shards:   0%|          | 0/2 [00:00<?, ?it/s]"],"application/vnd.jupyter.widget-view+json":{"version_major":2,"version_minor":0,"model_id":"d2c59eab9e7b4569be95b47b4f8f1a96"}},"metadata":{}},{"output_type":"execute_result","data":{"text/plain":["LlamaForCausalLM(\n","  (model): LlamaModel(\n","    (embed_tokens): Embedding(128256, 3072)\n","    (layers): ModuleList(\n","      (0-27): 28 x LlamaDecoderLayer(\n","        (self_attn): LlamaSdpaAttention(\n","          (q_proj): Linear(in_features=3072, out_features=3072, bias=False)\n","          (k_proj): Linear(in_features=3072, out_features=1024, bias=False)\n","          (v_proj): Linear(in_features=3072, out_features=1024, bias=False)\n","          (o_proj): Linear(in_features=3072, out_features=3072, bias=False)\n","          (rotary_emb): LlamaRotaryEmbedding()\n","        )\n","        (mlp): LlamaMLP(\n","          (gate_proj): Linear(in_features=3072, out_features=8192, bias=False)\n","          (up_proj): Linear(in_features=3072, out_features=8192, bias=False)\n","          (down_proj): Linear(in_features=8192, out_features=3072, bias=False)\n","          (act_fn): SiLU()\n","        )\n","        (input_layernorm): LlamaRMSNorm((3072,), eps=1e-05)\n","        (post_attention_layernorm): LlamaRMSNorm((3072,), eps=1e-05)\n","      )\n","    )\n","    (norm): LlamaRMSNorm((3072,), eps=1e-05)\n","    (rotary_emb): LlamaRotaryEmbedding()\n","  )\n","  (lm_head): Linear(in_features=3072, out_features=128256, bias=False)\n",")"]},"metadata":{},"execution_count":1}]},{"cell_type":"markdown","source":[],"metadata":{"id":"zZqdfQa750-t"}},{"cell_type":"code","source":["import torch.quantization as quantization\n","\n","# Set the model to QAT-ready mode\n","model.qconfig = quantization.get_default_qat_qconfig('fbgemm')\n","quantization.prepare_qat(model, inplace=True)\
…
